…
{'cnn_train_type': 'retrain', 'dropout': 0.0, 'optimizer': (<class 'keras.optimizers.RMSprop'>, {}), 'learning_rate': 0.0001, 'cnn_arch': <function wrapper at 0x7f5fa30d5c08>}
run experimnt {'cnn_train': 'retrain', 'optimizer': 'RMSprop', 'learning_rate': 0.0001, 'batch_size': 2, 'dataset': 'hocky', 'epochs': 30, 'cnn': 'wrapper', 'initial_weights': 'glorot_uniform', 'lstm': 'ConvLSTM2D', 'dropout': 0.0, 'seq_len': 10}
Model: "model_1"
_________________________________________________________________
Layer (type)                 Output Shape              Param #   
=================================================================
input_1 (InputLayer)         (None, 10, 244, 244, 3)   0         
_________________________________________________________________
time_distributed_1 (TimeDist (None, 10, 7, 7, 512)     20024384  
_________________________________________________________________
conv_lst_m2d_1 (ConvLSTM2D)  (None, 7, 7, 256)         7078912   
_________________________________________________________________
max_pooling2d_1 (MaxPooling2 (None, 3, 3, 256)         0         
_________________________________________________________________
flatten_1 (Flatten)          (None, 2304)              0         
_________________________________________________________________
batch_normalization_1 (Batch (None, 2304)              9216      
_________________________________________________________________
dropout_1 (Dropout)          (None, 2304)              0         
_________________________________________________________________
dense_1 (Dense)              (None, 1000)              2305000   
_________________________________________________________________
activation_1 (Activation)    (None, 1000)              0         
_________________________________________________________________
dense_2 (Dense)              (None, 256)               256256    
_________________________________________________________________
dropout_2 (Dropout)          (None, 256)               0         
_________________________________________________________________
activation_2 (Activation)    (None, 256)               0         
_________________________________________________________________
dense_3 (Dense)              (None, 10)                2570      
_________________________________________________________________
dropout_3 (Dropout)          (None, 10)                0         
_________________________________________________________________
activation_3 (Activation)    (None, 10)                0         
_________________________________________________________________
dense_4 (Dense)              (None, 1)                 11        
=================================================================
Total params: 29,676,349
Trainable params: 29,671,741
Non-trainable params: 4,608
_________________________________________________________________
None
Epoch 1/30

  1/320 [..............................] - ETA: 1:22:56 - loss: 0.4562 - acc: 1.0000
  2/320 [..............................] - ETA: 42:28 - loss: 0.6667 - acc: 0.5000  
…
